…
{'training': False, '_parameters': {}, '_buffers': {}, '_non_persistent_buffers_set': set(), '_backward_pre_hooks': OrderedDict(), '_backward_hooks': OrderedDict(), '_is_full_backward_hook': None, '_forward_hooks': OrderedDict(), '_forward_hooks_with_kwargs': OrderedDict(), '_forward_hooks_always_called': OrderedDict(), '_forward_pre_hooks': OrderedDict(), '_forward_pre_hooks_with_kwargs': OrderedDict(), '_state_dict_hooks': OrderedDict(), '_state_dict_pre_hooks': OrderedDict(), '_load_state_dict_pre_hooks': OrderedDict(), '_load_state_dict_post_hooks': OrderedDict(), '_modules': {'wav2vec2': Wav2Vec2Model(
  (feature_extractor): Wav2Vec2FeatureEncoder(
    (conv_layers): ModuleList(
      (0): Wav2Vec2LayerNormConvLayer(
        (conv): Conv1d(1, 512, kernel_size=(10,), stride=(5,))
        (layer_norm): LayerNorm((512,), eps=1e-05, elementwise_affine=True)
        (activation): GELUActivation()
      )
      (1-4): 4 x Wav2Vec2LayerNormConvLayer(
        (conv): Conv1d(512, 512, kernel_size=(3,), stride=(2,))
        (layer_norm): LayerNorm((512,), eps=1e-05, elementwise_affine=True)
        (activation): GELUActivation()
      )
      (5-6): 2 x Wav2Vec2LayerNormConvLayer(
        (conv): Conv1d(512, 512, kernel_size=(2,), stride=(2,))
        (layer_norm): LayerNorm((512,), eps=1e-05, elementwise_affine=True)
        (activation): GELUActivation()
      )
    )
  )
  (feature_projection): Wav2Vec2FeatureProjection(
    (layer_norm): LayerNorm((512,), eps=1e-05, elementwise_affine=True)
    (projection): Linear(in_features=512, out_features=1024, bias=True)
    (dropout): Dropout(p=0.0, inplace=False)
  )
  (encoder): Wav2Vec2EncoderStableLayerNorm(
    (pos_conv_embed): Wav2Vec2PositionalConvEmbedding(
      (conv): ParametrizedConv1d(
        1024, 1024, kernel_size=(128,), stride=(1,), padding=(64,), groups=16
        (parametrizations): ModuleDict(
          (weight): ParametrizationList(
            (0): _WeightNorm()
          )
        )
      )
      (padding): Wav2Vec2SamePadLayer()
      (activation): GELUActivation()
    )
    (layer_norm): LayerNorm((1024,), eps=1e-05, elementwise_affine=True)
    (dropout): Dropout(p=0.1, inplace=False)
    (layers): ModuleList(
      (0-23): 24 x Wav2Vec2EncoderLayerStableLayerNorm(
        (attention): Wav2Vec2SdpaAttention(
          (k_proj): Linear(in_features=1024, out_features=1024, bias=True)
          (v_proj): Linear(in_features=1024, out_features=1024, bias=True)
          (q_proj): Linear(in_features=1024, out_features=1024, bias=True)
          (out_proj): Linear(in_features=1024, out_features=1024, bias=True)
        )
        (dropout): Dropout(p=0.1, inplace=False)
        (layer_norm): LayerNorm((1024,), eps=1e-05, elementwise_affine=True)
        (feed_forward): Wav2Vec2FeedForward(
          (intermediate_dropout): Dropout(p=0.0, inplace=False)
          (intermediate_dense): Linear(in_features=1024, out_features=4096, bias=True)
          (intermediate_act_fn): GELUActivation()
          (output_dense): Linear(in_features=4096, out_features=1024, bias=True)
          (output_dropout): Dropout(p=0.1, inplace=False)
        )
        (final_layer_norm): LayerNorm((1024,), eps=1e-05, elementwise_affine=True)
      )
    )
  )
), 'dropout': Dropout(p=0.0, inplace=False), 'lm_head': Linear(in_features=1024, out_features=58, bias=True)}, 'config': Wav2Vec2Config {
  "_attn_implementation_autoset": true,
  "activation_dropout": 0.0,
  "adapter_attn_dim": null,
  "adapter_kernel_size": 3,
  "adapter_stride": 2,
  "add_adapter": false,
  "apply_spec_augment": true,
…
